web/FUImodel/model.tflite (tflite, 29240 bytes, 6 tensors)

sequential_1/dense_Dense1/MatMul/ReadVariableOp/transpose f4 [50, 120]
00000000: e67e 883e c7b6 e03d 08e6 673e 8559 b03d
00000010: 1ea7 6ebc 7a82 ccbc 7637 2ebd 5f86 4a3e
00000020: a59b 053e 9086 2e3e 11b4 373e 1e78 f3bd
00000030: bfe8 023d 685c cebd 4be0 673e 3a83 8a3d
00000040: adf3 a63d e69d 863d 946a ac3d 5c8d ec3d
00000050: 414f 163e 0029 493d 6791 9cbb 035f bdbc
00000060: 892c 883d fce9 f23d 2b98 21be 8537 47be
00000070: b2a5 d23d 782b 313c f672 51be 7e36 ddbc
00000080: 968b c03d e551 833d c655 a83d 5afd bc3d
00000090: 9aee 193e 1eb7 0c3e c74a 20be 4ac5 403c
000000a0: 41ae 0e3d 773f 85bd ebaf 0e3d 94db d93d
000000b0: fed4 2bbe b5b6 4f3e a700 76bd 059b ef3d
000000c0: 474e b2bc 5766 053e f387 07bd fdb3 083e
000000d0: e4bc 7bbc 3939 173e 4660 30be 7dec 353d
000000e0: 916d 94bd 504b 6a3e 9d2b 573e ffbc 6a3d
000000f0: dab4 8e3d 38be 133e 1118 0f3e 5479 2f3c
00000100: 89dd 03be 84db b63d 5955 3a3e 089c fb3d
00000110: d341 3bbd 7dbe b03d 3d41 f23d ea5b 70bb
00000120: 267f 4ebd 843e cb3d 6e9f 05be 0e35 13bd
00000130: 4c7b 083d 105f e9bd 1f76 b03d 89b1 d63d
00000140: f060 003d 1334 9bbd 00b4 e3bc 6b59 323e
00000150: 0634 59be 957b 0abc 4334 60be 443e c43d
00000160: 33eb e93d fee6 393e 56b7 37be 7abc 053d
00000170: f08f 11be b2ff 773d 755a 313d 2990 6ebd
00000180: f052 2fbe 87a8 96bd 12e6 2a3d cd30 753d
00000190: 32a4 5e3c d994 73bc 4ea2 15be 217d 623d
000001a0: 4558 90bd 4cd0 9c3c 59dc 6b3e c0d0 60bd
000001b0: 4dec 2cbe 33f3 d73d c68c ccbd 2e08 a93c
000001c0: ec31 123e 1746 773d c9a1 a53c 9361 8f3d
000001d0: 592d b8be b531 603b 9755 3f3c aa0c 323e
000001e0: a88e 193d b015 083e 39fa 2bbd 4126 1ebc
000001f0: 32e2 1b3e 75cf 5f3e 4b84 8cbe 545d 8c3e
00000200: 26a3 31be dc34 a3bd d274 443c 3f20 d63d
00000210: 960e 33bd 690d b13e ce8d 95bd a379 da3b
00000220: dd7d 02bd 8d5c cdbd dddb 39be a11c 353e
00000230: 2ef1 e2bd c2a8 053e 10eb 373e 1694 333e
00000240: adaf 95be 36cd db3c 8806 1fbe 3f8d d4bc
00000250: b6e8 98bd 55a4 95bc 7436 41be a5fe 2e3e
00000260: ffb2 793d f5ef f6bd 1b61 2dbc 26c1 553e
00000270: fb1b 1bba 0b72 9e3d a3f3 eb3d 2f46 243e
00000280: 2526 e13c 50c7 e83d e7e4 0dbe 5a36 3e3d
00000290: aa6a 6abc fd3c b83d e875 533d 38c7 cd3c
000002a0: ed1c 3fbe d726 543e f0e9 88bd bfb6 843d
000002b0: 2e27 11be f8bd ed3d 2105 aabe 1d5e 64bb
000002c0: 4c13 9b3d 9202 70bd 11bf a93c fe5a b4bd
000002d0: 9661 08be 5711 833e 200e 823d 56ee 52bd
000002e0: d553 84bb 4155 d63c f761 dcbd 32f0 a5bd
000002f0: 5c09 25be bd8a b4bd 89c8 e7bd 0eb1 0b3d
00000300: 337a 8bbd 1839 36bc 2ecd f1bc f95f 03be
00000310: 07a2 993d daed 7d3d d285 1ebe 25ab 493e
00000320: 5727 043d 23cf 193e d3e2 aaba 1eda 33bd
00000330: ab97 ffbc 75e5 d2bd 25f3 fc3c 1b0f 8b3d
00000340: b8c7 ffba 2399 3c3e 4f59 c8bc 522e e8bb
00000350: 24fd 4f3d b664 a53d ff4d 6abd 4a40 0b3e
00000360: 2ea5 1cbe ea63 3bbd febf b13c 30e5 65bb
00000370: cddd a03d 9334 36be 1165 a43d 05cd 803d
00000380: 4331 483e af37 35bc 3f9d fa3c 04b8 b9bc
00000390: 310b 41bd bd0d 89bd f908 223e 475a 6ebc
000003a0: 6c81 773d b197 c23d 27e2 02bd 9ca3 16be
000003b0: 830c e73d ddd8 0e3d 87ba 913c 5812 34be
000003c0: 7904 4c3d f120 a6bd 386a 2b3d 8860 52bc
000003d0: ec82 533d 32a6 ad3d 9909 82bd c5dd 0e3c
000003e0: ced9 19bc 360f c03d 85fd b2bd 25a0 b5bd
000003f0: 02ec 853d 3240 b3bd a354 0b3e bece 363d
0.26659316 0.10972362 0.22646344 0.086108245 -0.014566211 -0.02496456 -0.04253336 0.19777821
0.13047655 0.17043519 0.17939784 -0.11888145 0.031960245 -0.10076219 0.22644155 0.06763311
0.08151946 0.065730855 0.08418766 0.115504 0.1467867 0.049111366 -0.0047780755 -0.023116594
0.066491194 0.11861035 -0.15780704 -0.19454773 0.1028551 0.010813586 -0.2045401 -0.027003523
0.09401624 0.064121045 0.08219485 0.092280105 0.15032426 0.13741729 -0.15653525 0.011765787
0.03483415 -0.065062456 0.034835737 0.10637584 -0.16780469 0.20284541 -0.060059216 0.116994895
-0.021765841 0.13027321 -0.033088636 0.1334991 -0.015364859 0.14767922 -0.17224225 0.044414986
-0.07247461 0.22880292 0.21012731 0.057309147 0.069680884 0.14428031 0.13974024 0.010710079
-0.12877478 0.08928588 0.1819662 0.1228562 -0.04571707 0.08630083 0.118288495 -0.0036675879
-0.050414227 0.09924033 -0.13049099 -0.03593927 0.03332071 -0.11395085 0.0861628 0.10483081
0.031342447 -0.07578292 -0.027795792 0.17416923 -0.21211252 -0.008452316 -0.21894936 0.09582189
0.11421814 0.18154523 -0.17941031 0.03265045 -0.14215064 0.060546584 0.043299157 -0.05824295
-0.17121482 -0.07356363 0.04172332 0.059860993 0.013588952 -0.014867031 -0.14612696 0.055295113
-0.07048086 0.019142292 0.23033275 -0.05488658 -0.16887017 0.105444334 -0.09987788 0.020633783
0.14276856 0.060369577 0.020218747 0.07001033 -0.35972098 0.0034209315 0.011678121 0.17387643
0.037489563 0.13289523 -0.041986678 -0.009652675 0.15223005 0.21856482 -0.27444682 0.27414954
-0.17347392 -0.079690665 0.011990743 0.10455369 -0.043715082 0.34580544 -0.07302438 0.0066673323
-0.031858314 -0.10027418 -0.18150277 0.17686702 -0.110811576 0.13052657 0.17960763 0.17536959
-0.29235592 0.02683125 -0.15529835 -0.025946258 -0.07466261 -0.018266836 -0.18868428 0.17089327
0.06096172 -0.12057487 -0.010582234 0.20874462 -0.000591695 0.07736596 0.115210794 0.16042398
0.027484009 0.11366141 -0.1385685 0.046438552 -0.014307657 0.089960076 0.051626116 0.025119409
-0.18663378 0.20717941 -0.06685245 0.064801686 -0.14175102 0.11608499 -0.33207038 -0.0034846135
0.0757204 -0.0585962 0.02072099 -0.08806418 -0.13318476 0.25599167 0.063503504 -0.051496826
-0.004038314 0.0261637 -0.10760873 -0.08102454 -0.16116852 -0.08815525 -0.11317546 0.0341044
-0.06810417 -0.011122011 -0.029516783 -0.1282958 0.075016074 0.06199441 -0.15480736 0.19694193
0.03226408 0.15020423 -0.001303757 -0.043909185 -0.03120025 -0.10297672 0.03087766 0.067899905
-0.0019514477 0.18417792 -0.024456648 -0.0070856 0.050778523 0.0807585 -0.05720329 0.13598743
-0.15297386 -0.045749582 0.021697994 -0.0035079233 0.07854805 -0.17793493 0.080270894 0.06289104
0.19550042 -0.011060639 0.030592559 -0.022670753 -0.047129814 -0.066920735 0.15823735 -0.014547891
0.06042616 0.09501589 -0.031953957 -0.1471085 0.11281683 0.034874786 0.017789138 -0.17585123
0.049808953 -0.08111752 0.041849345 -0.012840398 0.05163853 0.08478965 -0.06349487 0.008719866
-0.009390308 0.09377901 -0.08739761 -0.08868436 0.065391555 -0.08752479 0.13606505 0.04463076

sequential_1/dense_Dense1/MatMul_bias f4 [50]
00000000: 0949 d9bd 8a4d 213e 6c15 763c 0c8d 01be
00000010: 085d ebbc 618c 3abe df26 383e ff05 8fbd
00000020: e153 173d 72c2 99bc 1742 693d 532d 0f3e
00000030: 7425 6bbc aba0 ab3d 88e0 f43d 28c4 163d
00000040: 60b6 9f3d 02ad 003c bcda 0a3d 10fb 613d
00000050: 3cb6 6e3d 14b4 21bd 9eeb 3ebd 1c38 013d
00000060: cd57 043e 948e 50bd f017 be3b e1dd c13b
00000070: 53f4 8339 2776 76bc 5ff3 9c3d d5b7 933d
00000080: 2ce6 283c 3f66 b3bc 25c6 843d a2f1 70bc
00000090: 1b18 fc3d 4d05 a43d edf6 ac3d 41d5 d33c
000000a0: c032 213e 0553 f039 eac2 19bc d008 a33d
000000b0: c5a4 af3d d0c9 3cbe cdaa 3f3d cdc8 8a3d
000000c0: 031f 2e3e d7a9 1c3e
-0.106096335 0.15752235 0.015019756 -0.12651461 -0.028730884 -0.18217613 0.17983578 -0.069835655
0.036945228 -0.018769477 0.056947794 0.13982134 -0.014352191 0.08380254 0.119568884 0.036808163
0.07798457 0.007853748 0.033900008 0.055171072 0.05827926 -0.039478377 -0.04661142 0.03154765
0.12924118 -0.050917223 0.0058011934 0.0059163426 0.00025168303 -0.015042818 0.07663607 0.072127976
0.0103087835 -0.02189934 0.064831056 -0.014706047 0.12309285 0.080088235 0.08445535 0.025858523
0.15742016 0.00045838222 -0.00938485 0.07960665 0.08576349 -0.1843636 0.046793748 0.06776581
0.17004018 0.15299164

sequential_1/dense_Dense2/MatMul/ReadVariableOp/transpose f4 [15, 50]
00000000: cec1 aa3c 469b b53d d285 88bd c7f3 97bd
00000010: e30b ea3c 5509 c4bd 239e fd3d 1477 9c3d
00000020: 9725 ae3d 7151 15be 6f13 8dbd 5944 0ebe
00000030: 1f80 25be 987c 2abe c411 2bbd 310d b2bd
00000040: cc52 593e 4fe7 8b3d b05a 513d eede 8d3d
00000050: 312c 36be 1c73 82bc c588 803e 2f71 41be
00000060: 21b5 dc3e 5fe4 c6bd 48d3 d7bc f5e1 16be
00000070: e445 ebbd 04cd bbbd 5e0f a03c 8556 bebd
00000080: 86b2 82bc 680e 91be dc2a 02bd e4c4 aabd
00000090: b229 a6be 27ac dd3c b72c 8b3d b6aa 323e
000000a0: 1452 cc3d a1aa fcbd cfb5 92be da37 57bd
000000b0: 366f d53c ee43 ae3d 9c3d c73c ccfd 133d
000000c0: 34fb d0bc 3b93 313e da03 b4be 53fd ca3e
000000d0: 0b77 813d 0e44 553e 4b39 713d 422c f2bc
000000e0: 7eeb 80be d290 86be 75c8 123e 0d23 033d
000000f0: ca57 333e 1083 4b3e dfaf b63e 3670 4abd
00000100: 7036 0f3f afef 4ebe 5cbd 59be 39c0 8e3d
00000110: 955c f13d 02f3 48be 1386 33be d87a 0b3e
00000120: e4dd 2dbe f648 03bf dddb 013f 1348 73be
00000130: 7a57 0b3e 63b7 193e 9878 fa3d aee9 7ebe
00000140: 16a3 a3be cb44 cf3e 96d8 ae3e ec07 e9bd
00000150: 5ff7 913e 7511 863d 4c7e f73b 7b04 90be
00000160: cbb0 e23e 5626 5f3d 165b 6dbe e7af 80bd
00000170: 27d2 ac3c cae3 193f dd82 e73e c74a 373b
00000180: 667c 31bd caf8 703e 2352 503f 3411 a03e
00000190: bbbf 5d3e 8d2a 1d3f a330 07be 0d59 90bd
000001a0: f52e 0dbe e407 d8bc f274 2abe 08ad 233e
000001b0: d08f 2b3e 7ad6 353e c997 9b3d 20ce 493e
000001c0: cb2b 9dbc 42ad 0b3d cef6 283e d6eb afbd
000001d0: 2777 a7be 1629 9abe 52d5 233e 5eb1 dfbd
000001e0: a023 d3bc fcb2 283e 16c6 82bd 65f0 a03e
000001f0: b5c3 4cbe 1a3d 3ebe bfda fc3b 7364 1abd
00000200: 460a c53d a820 45be 6547 933d dda9 ecbe
00000210: e354 503e fe25 093e b972 5fbe 62e6 023f
00000220: fc36 9b3d 4bbb 883d c29b 883e ee21 3c3e
00000230: 2526 e23e 7da7 1dbe f812 9cbd ef11 8e3e
00000240: 4570 5a3e f79a 67be 7f63 24be 7fce c5bd
00000250: bf4e e53d 2a45 1d3e c2f8 883d 2554 41bd
00000260: 16fe 4dbe 427a 8f3e 8e64 143d ec03 2bbc
00000270: 726d 76be fb71 6fbd a1ff a33e d25d d5bd
00000280: 18ad 9fbe c58f 3b3e f015 043e c075 aa3e
00000290: 3c8d a2bd de89 1abe 5d99 443d 7d8e 50bc
000002a0: 3382 ae3c bee6 863e 113e 00bd 73c2 aa3e
000002b0: b2ef 84bd 4254 2d3e 0cad 723e ccf5 5cbd
000002c0: 17e0 a9bc ac45 1d3e 2199 66be f8b5 e5bd
000002d0: 48f3 9a3e 39ec 90be b128 26be 67a2 09bd
000002e0: 8728 38bb b77c 53be d100 86be 30b1 58be
000002f0: 9b47 333d 372b cd3d ffba 033f c044 f63c
00000300: 9532 11bc 5b8d 3abc 2564 f63c d574 343e
00000310: 9ada 113e 918a 61be 370c 32be a5f9 55be
00000320: 158b 5e3e 61ea 103d d3e4 013e f1b9 41be
00000330: 3bd6 d1bd 6253 e13d c43c 35be e014 203e
00000340: 9886 9abe 3e15 9b3d de44 ce3d e2e1 923e
00000350: 0529 703e 3592 c73e 1139 d9be 3fad 293d
00000360: d0f1 94bd e982 143d 498b 79be b74f d7bd
00000370: 3878 793e 1828 56be c6c2 333f 1c3d b8bc
00000380: a954 0b3d 689a 2b3e b497 c4bd 8536 483e
00000390: be9d 7fbd df3d a2bd fe30 f13d 701c 933c
000003a0: e99d 72bd 8b05 283e 68a0 dfbe fc40 c23e
000003b0: 1aa1 76be c12c 633d 3d08 adbe 66a0 3fbd
000003c0: bc4b c6bc e05b 6f3e f5b7 c1bd 12a5 f3be
000003d0: 85ae 2abe 25b1 8f3d 8ebe 32be b11f f63d
000003e0: 5af2 02be 9213 0bbe b415 8c3d 7ddd 523e
000003f0: 13d5 4bbe b31a 873e edcd bdbd 30b0 df3e
0.020844366 0.08867507 -0.06666149 -0.07419544 0.028570121 -0.095720924 0.12383678 0.076399
0.085032634 -0.14581849 -0.06888472 -0.1389326 -0.16162156 -0.16649091 -0.04176499 -0.08693922
0.21222991 0.06831228 0.051111877 0.06927286 -0.17790295 -0.015924029 0.25104347 -0.18890832
0.4310694 -0.09711527 -0.026345864 -0.14734633 -0.1148794 -0.09169963 0.019538578 -0.09293846
-0.015954267 -0.28331304 -0.031779155 -0.08338335 -0.32453686 0.027059628 0.06795638 0.17447934
0.09976593 -0.123372324 -0.28654334 -0.0525435 0.026054006 0.0850905 0.02432137 0.03613071
-0.025510408 0.1734132 -0.35159189 0.39646396 0.06321534 0.20826742 0.05889253 -0.02956212
-0.25179666 -0.26282364 0.14334281 0.03201585 0.17513958 0.19874215 0.35681054 -0.04942342
0.5594244 -0.2020862 -0.21263641 0.06970257 0.11785237 -0.1962395 -0.17531614 0.1362108
-0.16979176 -0.51283205 0.5072611 -0.23757963 0.13607588 0.15011363 0.12230033 -0.24893829
-0.31960362 0.40482172 0.34149617 -0.11378464 0.28509042 0.065462984 0.0075528976 -0.28128418
0.44275507 0.05447992 -0.23179278 -0.06283551 0.021096302 0.60113204 0.45217028 0.0027968155
-0.043331526 0.23532405 0.8137533 0.31263125 0.2165517 0.6139305 -0.13202147 -0.07048235
-0.13787444 -0.02637095 -0.16646174 0.15983975 0.16754079 0.17757598 0.0759731 0.19707537
-0.019185921 0.03410078 0.16500399 -0.08589904 -0.32708094 -0.3010947 0.15999344 -0.10922502
-0.025773823 0.16474527 -0.06385438 0.31433406 -0.19996531 -0.18577996 0.0077165063 -0.037693452
0.096211 -0.19250739 0.07191352 -0.46223345 0.20344882 0.13393399 -0.21821107 0.51132786
0.07578847 0.06676348 0.26681334 0.18372318 0.44169727 -0.15395923 -0.076208055 0.27748057
0.2133189 -0.22617708 -0.1605358 -0.09658527 0.1119666 0.15358415 0.06688072 -0.047199387
-0.20116457 0.28022963 0.03622871 -0.010437947 -0.24065188 -0.05845831 0.32030967 -0.104182854
-0.31186748 0.18316562 0.12898993 0.3329296 -0.079370946 -0.15091655 0.04799782 -0.012729284
0.021302318 0.26347917 -0.03130919 0.33351478 -0.06491031 0.16926673 0.23698825 -0.053945348
-0.020736737 0.15358609 -0.22519352 -0.112163484 0.30263734 -0.28305224 -0.1622646 -0.033602145
-0.0028100328 -0.20653044 -0.26172498 -0.21161342 0.04376946 0.10018008 0.5145721 0.03006208
-0.008862157 -0.011386241 0.03007705 0.17622693 0.14243546 -0.22025515 -0.17387472 -0.20896013
0.21732743 0.03537977 0.12684946 -0.18918587 -0.10245939 0.11002232 -0.17698961 0.15632963
-0.30180812 0.07572411 0.10071729 0.2868796 0.23453148 0.38978735 -0.4242635 0.041424986
-0.072726846 0.03625766 -0.2436954 -0.10513251 0.24362266 -0.20913732 0.70219076 -0.022490077
0.034016285 0.1675812 -0.095992476 0.19552048 -0.062406294 -0.07921957 0.11776923 0.017957896
-0.059232626 0.16408364 -0.43677068 0.37940204 -0.24084893 0.055462603 -0.33795348 -0.046783827
-0.024206035 0.23374891 -0.09458915 -0.47586876 -0.16668136 0.070162095 -0.17455503 0.120177634
-0.12787762 -0.13581684 0.06840077 0.20592304 -0.199055 0.26387557 -0.09267793 0.43689108

sequential_1/dense_Dense2/MatMul_bias f4 [15]
00000000: 6a11 933d 8cea 6f3e 21d5 9e3e 468f ef3d
00000010: 71f4 87bd 1765 17bd 4176 00bd 44be b63d
00000020: a657 153d 214e a3bb 7522 d7bc 1947 3d3e
00000030: 0367 d63d e7a5 0ebd 6aa1 b9bd
0.07181056 0.23429316 0.3102198 0.11697249 -0.066384204 -0.03696164 -0.031362776 0.08923009
0.03646054 -0.004983679 -0.026261548 0.18484153 0.10468867 -0.034826186 -0.090639904

sequential_1/dense_Dense3/MatMul/ReadVariableOp/transpose f4 [5, 15]
00000000: 740d 4c3e 1ac8 e13e b73b acbe 0812 3ebf
00000010: 2c66 2cbf 20a4 22bf cd97 0cbf 2b0e 1abf
00000020: e338 3dbf 0563 e63e 70df 5e3f 329c 733f
00000030: 12cd 0b3f 1c9f 093f bd2b 2cbf 573f 4c3e
00000040: 8e27 663f 0b32 373f c0e7 8dbe a3a2 afbe
00000050: 0a9c f0bd 7abb 80bf a03c 63be 54c4 15bd
00000060: 8a27 47bf 4724 c0be 519a 1f3e 1b70 40bf
00000070: 4773 85bf 4c6c d2bd c316 1fbf 6315 883c
00000080: 999d 5dbf e1a6 f5bd 7bd7 e8be 85e3 2f3f
00000090: b5ab 25be 758f 47bf dc6e 953d 8043 993e
000000a0: 75e8 823e 559a 83bf 7f5a 37bf a873 053f
000000b0: 54f9 163f d5ef 12bf 9958 07bf 5411 9dbe
000000c0: 04ba 903e 9b79 0c3f d38a 623f fbcd 1b3f
000000d0: e253 b53c 42c3 54bf 74d9 b63e 57d6 91be
000000e0: b57f 42bf 504b e03e 6f47 52bf dc71 26bf
000000f0: bc14 edbe b0fa acbf 11d5 7a3e 2c7d a33e
00000100: ab48 103f 0792 4bbe ac71 adbe dd59 5fbd
00000110: 277d 213f f364 e53e 6a6d 09be b722 ed3d
00000120: 5a7c adbe 3030 0cbe 02f1 f73e
0.19927007 0.44097978 -0.3363931 -0.74246264 -0.673434 -0.63531685 -0.5491913 -0.6017787
-0.7391493 0.4499742 0.8705969 0.9516021 0.5460979 0.53758407 -0.6725424 0.19946037
0.89904106 0.71560735 -0.27715874 -0.3430377 -0.11748512 -1.0057213 -0.22191095 -0.036564186
-0.77794707 -0.37527677 0.15586211 -0.7517106 -1.0425805 -0.10274562 -0.62144107 0.01661176
-0.865686 -0.1199472 -0.454769 0.6870654 -0.16178782 -0.77953273 0.072965354 0.2993431
0.25567976 -1.0281473 -0.7162246 0.521296 0.58974195 -0.57397205 -0.52869564 -0.30677283
0.2826692 0.54873055 0.8849308 0.60861176 0.022134725 -0.8311044 0.3571278 -0.2848384
-0.75976115 0.4380746 -0.8214025 -0.65017486 -0.46304882 -1.3514004 0.24495341 0.31931436
0.5636088 -0.19879924 -0.33875787 -0.05452906 0.6308159 0.4480358 -0.13420644 0.11578887
-0.33883935 -0.13690257 0.48426062

sequential_1/dense_Dense3/MatMul_bias f4 [5]
00000000: d55d 45be 333a 403e 0b57 cabe fb58 04be
00000010: 5be6 fcbd
-0.19274075 0.18772201 -0.39519534 -0.12924568 -0.12348624
