web/FUImodel/model.tflite (tflite, 29240 bytes, 6 tensors)

sequential_1/dense_Dense1/MatMul/ReadVariableOp/transpose f4 [50, 120]
-0.11733115 0.48032862 -0.24586602 -0.09199817 0.083550006 -0.08052668 -0.05674268 0.18418388
-0.09085984 -0.003389181 0.12586795 -0.016565235 0.027249353 0.026155131 -0.02526286 0.04173851
-0.085206434 0.09506912 0.06023057 0.051612 0.10551977 0.12443987 0.025505073 0.012808004
-0.0942231 -0.19258265 -0.05173765 0.020187197 -0.004065142 0.09444435 -0.210272 -0.061872818
0.29994413 0.041381348 -0.04942511 -0.017372224 -0.19275087 -0.20322768 -0.038434774 0.12011069
-0.055727504 0.0043142512 -0.04850022 -0.05050976 -0.088173464 -0.04633279 0.015639808 -0.012723212
-0.0984829 -0.09126964 -0.13192564 0.06925834 -0.19965501 -0.049213335 0.1375083 -0.0009896402
-0.02066323 0.06471171 0.17073232 0.015777666 -0.10146078 -0.2009017 -0.0014188286 0.08856066
-0.032695718 0.06879512 -0.14266346 -0.07895953 -0.073982246 -0.0061412184 -0.14801797 0.053585604
0.035813045 0.043342236 -0.117697224 0.062824406 -0.049056556 -0.055566438 0.09495642 0.2627798
0.0006184049 0.04420076 -0.13182434 -0.0719737 0.1228939 0.019454064 0.0033513193 -0.027135849
0.083864644 0.1830577 0.08029374 -0.039274093 -0.11698329 -0.11952818 -0.15817577 -0.11002903
0.17174889 0.17017095 0.12590349 0.021677565 -0.22565356 -0.04827814 0.029787624 -0.040407386
0.14157045 -0.11563082 -0.22649732 -0.04307847 0.12210003 0.19099249 -0.10098967 0.09935706
0.030209884 0.1592897 -0.03141849 0.10197025 0.1373487 -0.24235009 -0.02004014 0.08035864
-0.07379677 -0.291562 -0.044929076 0.00031009258 -0.07609473 -0.13616025 0.025949758 0.09731845
-0.010250344 0.09137205 -0.040283967 -0.13522102 0.020073794 0.16458872 0.17994228 0.074226044
-0.14730495 -0.20658697 -0.0603619 0.14699267 0.0038936376 -0.003791022 -0.08651017 -0.18315503
0.061839703 0.08625917 -6.1953084e-05 0.13526234 0.15448773 0.03291006 0.10759193 0.125892
-0.022063823 0.043703683 -0.13062781 -0.037520107 0.05141052 0.03478309 0.06374992 0.16574088
-0.08402754 0.05173753 -0.005760033 -0.0095250765 -0.035418533 0.0015181155 -0.020025814 -0.029739685
-0.021652406 -0.018416688 -0.049546618 0.034325205 -0.1968727 0.0338282 0.103718944 -0.15875942
0.1579561 -0.093950555 0.19259723 0.11934693 0.028493628 0.20969261 0.069467984 0.15618634
-0.1197897 -0.17503735 -0.1091401 0.060053613 -0.109706625 0.18199171 -0.007861574 -0.17631483
0.07469312 0.14897178 -0.07968802 0.03290241 -0.06375105 0.103574835 -0.032807138 0.10565694
0.07080537 0.020043626 0.00083943014 -0.04694613 -0.11782317 -0.09864605 0.026548052 -0.07549896
0.004207506 0.007454704 0.055017278 -0.14888842 -0.013909595 0.049436554 0.21351938 0.055906277
0.007977773 -0.1052615 -0.0175463 0.0979894 0.08500491 0.14014722 -0.31676915 -0.20211391
-0.043235555 0.10214449 0.03175615 0.06511662 -0.12436342 -0.25979316 0.040594626 0.0073533626
-0.024570026 0.005331642 0.12345127 0.08801263 0.26408204 -0.035222135 0.02311687 -0.016441688
0.17607935 0.1513784 0.066338636 -0.05447012 -0.12777007 0.10987713 -0.009818235 -0.025975622
-0.09058815 0.09279702 0.22772947 -0.06016928 0.084436245 0.17306845 -0.18162026 0.0012701302
00000000: 504b f0bd a2ed f53e 4dc4 7bbe 8969 bcbd
00000010: 441c ab3d 2ceb a4bd 036b 68bd b39a 3c3e
00000020: b914 babd 061d 5ebb 87e3 003e d1b3 87bc
00000030: 093a df3c 4943 d63c 0ff4 cebc 00f6 2a3d
00000040: b680 aebd 99b3 c23d 55b4 763d 1b67 533d
00000050: c01a d83d 55da fe3d 04f0 d03c aad8 513c
00000060: 0af8 c0bd 6334 45be dcea 53bd 9f5f a53c
00000070: e234 85bb 0a6c c13d 8b51 57be 5a6e 7dbd
00000080: 4792 993e 7d7f 293d fc71 4abd 3250 8ebc
00000090: 7c60 45be eb1a 50be c86d 1dbd 98fc f53d
000000a0: 8642 64bd 905e 8d3b 2ba8 46bd 52e3 4ebd
000000b0: 4a94 b4bd 74c7 3dbd 0e1f 803c 0575 50bc
000000c0: 67b1 c9bd 94eb babd 8417 07be 51d7 8d3d
000000d0: 5d72 4cbe ec93 49bd face 0c3e d1b6 81ba
000000e0: ef45 a9bc 9387 843d 74d4 2e3e 2a40 813c
000000f0: abca cfbd 2db9 4dbe fdf7 b9ba 4b5f b53d
00000100: f2eb 05bd 75e4 8c3d 5f16 12be 89b5 a1bd
00000110: 0184 97bd 463c c9bb 0692 17be 947c 5b3d
00000120: b3b0 123d a187 313d 3e0b f1bd 15aa 803d
00000130: 87ef 48bd a299 63bd 8378 c23d 138b 863e
00000140: 731c 223a db0b 353d f6fc 06be f266 93bd
00000150: ccaf fb3d 215e 9f3c cfa1 5b3b 004c debc
00000160: 3ac1 ab3d 7a73 3b3e 0b71 a43d dfdd 20bd
00000170: ef94 efbd 31cb f4bd d4f8 21be e656 e1bd
00000180: f1de 2f3e 4b41 2e3e d8ec 003e 2695 b13c
00000190: ba11 67be 4dbf 45bd 2d05 f43c 3782 25bd
000001a0: d8f7 103e dacf ecbd eaee 67be 0d73 30bd
000001b0: 950f fa3d 8993 433e acd3 cebd b77b cb3d
000001c0: b87a f73c d71c 233e adb0 00bd c7d5 d03d
000001d0: 23a5 0c3e 9f2a 78be 382b a4bc 1293 a43d
000001e0: c322 97bd 9d47 95be 8d07 38bd ec93 a239
000001f0: 8ed7 9bbd 986d 0bbe 9694 d43c e54e c73d
00000200: 0ff1 27bc 4521 bb3d cd00 25bd 6177 0abe
00000210: cc71 a43c f289 283e ca42 383e d303 983d
00000220: 1cd7 16be 898b 53be 0a3e 77bd 3f85 163e
00000230: 662c 7f3b cc72 78bb 3e2c b1bd fe8c 3bbe
00000240: a14b 7d3d a6a8 b03d cfec 81b8 3682 0a3e
00000250: 0832 1e3e b3cc 063d 2859 dc3d d5e9 003e
00000260: 31bf b4bc a202 333d 4cc3 05be afae 19bd
00000270: d693 523d b778 0e3d 518f 823d fab7 293e
00000280: a216 acbd bbea 533d a9be bcbb 110f 1cbc
00000290: 0613 11bd 81fb c63a 2d0d a4bc a4a0 f3bc
000002a0: 6360 b1bc 98de 96bc 65f1 4abd 9698 0c3d
000002b0: ff98 49be 708f 0a3d 996a d43d d491 22be
000002c0: 3ebf 213e 2669 c0bd 3538 453e 2a6c f43d
000002d0: 786b e93c a9b9 563e 3b45 8e3d 50ef 1f3e
000002e0: 4d54 f5bd fe3c 33be d884 dfbd c7fa 753d
000002f0: dead e0bd 095c 3a3e d5cd 00bc e08b 34be
00000300: b5f8 983d 0f8c 183e 7933 a3bd adc4 063d
00000310: e98f 82bd 0b1f d43d c760 06bd aa62 d83d
00000320: 6802 913d 8832 a43c 340d 5c3a 964a 40bd
00000330: 464d f1bd f106 cabd 4d7b d93c 339f 9abd
00000340: 1edf 893b 9746 f43b cc59 613d 3576 18be
00000350: 12e5 63bc fc7d 4a3d d3a4 5a3e fbfd 643d
00000360: 35b5 023c 5793 d7bd 42bd 8fbc abae c83d
00000370: 0e17 ae3d c182 0f3e 912f a2be f3f6 4ebe
00000380: c417 31bd 2131 d13d bd12 023d dd5b 853d
00000390: 40b2 febd 9c03 85be 8d46 263d 7af4 f03b
000003a0: 1447 c9bc 0eb5 ae3b 05d4 fc3d f73f b43d
000003b0: c335 873e 1645 10bd 975f bd3c b8b0 86bc
000003c0: 254e 343e f002 1b3e 8ddc 873d 101c 5fbd
000003d0: 28d6 02be 4307 e13d aadc 20bc d4ca d4bc
000003e0: 4886 b9bd 5d0c be3d ea31 693e 1074 76bd
000003f0: e9ec ac3d db38 313e a9fa 39be 7f7a a63a

sequential_1/dense_Dense1/MatMul_bias f4 [50]
0.0118258055 0.21475036 0.02865523 -0.08153511 0.085915536 0.18381338 0.014264004 0.06487462
0.032643642 0.03338219 0.055165794 0.13886547 -0.06662493 -0.0012543291 -0.011286313 0.03916343
0.02035438 -0.045571133 0.11391698 0.010728159 -0.07576173 0.12754604 0.18752624 0.18463518
0.010633264 -0.037848443 0.0325025 0.23507728 0.24443585 0.1057796 0.13666758 0.11092614
0.17262645 0.11718936 -0.024316318 0.27024183 0.059978776 0.03671584 -0.031895578 0.120984286
0.015200969 0.03396314 0.05326312 0.18765515 0.018296164 -0.039411303 0.13800853 -0.07301984
0.04536581 -0.04706009
00000000: 06c1 413c 85e7 5b3e 5fbe ea3c e1fb a6bd
00000010: 7cf4 af3d 9339 3c3e 92b3 693c fcdc 843d
00000020: 57b5 053d c3bb 083d 87f5 613d c032 0e3e
00000030: a772 88bd 4d68 a4ba 3aea 38bc d569 203d
00000040: 3bbe a63c cca8 3abd 4e4d e93d 29c5 2f3c
00000050: f728 9bbd 6e9b 023e e106 403e 0111 3d3e
00000060: 2437 2e3c f806 1bbd 5721 053d 19b8 703e
00000070: 644d 7a3e faa2 d83d 96f2 0b3e 3e2d e33d
00000080: fdc4 303e fa00 f03d 0433 c7bc 235d 8a3e
00000090: 4eac 753d 5963 163d f0a4 02bd 9cc6 f73d
000000a0: 7c0d 793c ef1c 0b3d 6e2a 5a3d ac28 403e
000000b0: d6e1 953c bf6d 21bd 1c52 0d3e 6d8b 95bd
000000c0: 80d1 393d 15c2 40bd

sequential_1/dense_Dense2/MatMul/ReadVariableOp/transpose f4 [15, 50]
-0.23286706 -0.033248123 0.19311117 0.4069114 -0.0363836 -0.10975973 0.30462438 -0.105695516
0.2010299 -0.5199346 -0.11823695 0.2798505 -0.14336954 0.43954217 0.13633935 -0.37499744
0.071297735 -0.120077424 0.08273326 0.03262943 0.44243783 0.0144073805 -0.20932901 -0.51492995
-0.04702369 0.60399354 -0.2807891 0.0309667 -0.43998802 -0.55409306 0.25633526 0.20397839
0.0488956 -0.0054187207 0.37039447 -0.3142801 0.07213393 -0.2367758 0.43777275 -0.1479371
0.36077043 0.17731334 0.05344871 -0.09162402 0.11745144 -0.020877004 -0.152657 0.22761886
0.2977601 -0.112529635 -0.36061454 -0.40641984 0.20368016 0.35934025 0.037981935 -0.20644863
0.3178458 -0.008810837 0.0031974264 -0.07955725 0.34152517 -0.11761798 0.03538787 0.048679255
-0.1239426 0.0011745149 0.52657825 0.17988017 0.21983415 -0.15676816 0.20653993 0.10777166
0.07398398 -0.7213251 0.075930245 0.4611592 0.21374236 -0.6468755 -0.30267552 0.05967769
0.4152048 0.47329485 0.16060518 -0.038949132 0.3255836 0.12010308 0.37633002 -0.25557515
-0.014492882 -0.082405224 0.3055195 -0.016014824 -0.15097041 0.32403097 -0.119534284 -0.04551758
0.36355194 0.2288927 -0.049388878 -0.064472035 0.4314467 -0.06053114 0.14927201 -0.0398556
0.19970234 -0.38668302 0.21353364 -0.79184335 0.705368 -0.44222128 -0.1416661 0.12637942
-0.5887867 -0.53274965 -0.11823076 0.2322238 0.23809539 -0.032149427 -0.6235373 -0.21673803
-0.085002944 -0.1750398 -0.27368098 0.5923397 -0.14969826 0.5054377 -0.20352308 0.105819814
0.48323998 -0.36263698 0.47594416 0.3600397 -1.0323557 0.023033772 0.52281225 -0.7855984
-0.5968494 0.113341525 0.27698386 0.18933094 0.18381096 -0.23023638 -0.72718644 -0.81675166
-0.40211228 0.09471801 -0.124015376 -0.8186769 0.15496092 0.35108984 0.22190894 0.08613626
0.10894053 0.35747024 -0.31538478 -0.3087632 -0.019160213 0.081880115 0.23861195 -0.1803453
-0.02723851 0.26806417 -0.10753065 0.050034907 0.2149373 -0.19690941 0.32721215 -0.16641165
-0.47387868 -0.05007248 -0.4317608 -0.114481635 -0.4542425 0.2725938 0.022732312 0.5670743
0.4749488 -0.10658343 0.19971891 -0.09637439 0.13585266 -0.11009377 -0.38778603 0.063113324
-0.14383103 -0.31052923 0.14709924 -0.38376877 0.3979934 -0.10471644 0.3414793 0.31963912
-0.049138073 -0.21464145 -0.1333776 0.05151064 0.18720244 0.07803172 0.46332657 -0.33814898
-0.41595328 0.16118115 0.04684868 0.477454 0.19154745 -0.1525217 0.1406865 0.33713424
0.386261 0.08129781 -0.324918 -0.14275864 0.16591825 -0.08430688 -0.17091502 -0.11404365
0.16889077 -0.0407077 0.13751341 0.0514162 0.14585285 -0.016619748 -0.17127708 -0.29751587
0.32409486 0.30334204 0.52026486 0.012071844 -0.61053944 -0.40399474 0.18763429 0.19590603
0.12270624 0.042568903 0.34588653 0.090013675 0.17780976 -0.087942556 -0.3642914 -0.027344512
0.2862225 0.088420376 0.013334939 -0.017607544 -0.23068121 0.3807606 -0.06978109 0.3391833
0.07225557 -0.12438129 -0.04988241 0.42097777 -0.053375825 -0.055117283 0.23457427 0.41977006
00000000: b474 6ebe 2f2f 08bd efbe 453e b156 d03e
00000010: f806 15bd b6c9 e0bd baf7 9b3e e476 d8bd
00000020: c8da 4d3e 6f1a 05bf 3726 f2bd 9148 8f3e
00000030: 77cf 12be ac0b e13e 8b9c 0b3e aaff bfbe
00000040: 8c04 923d 27eb f5bd 0e70 a93d 70a6 053d
00000050: 3687 e23e ef0c 6c3c 585a 56be 73d2 03bf
00000060: ea9b 40bd 529f 1a3f 97c3 8fbe e0ad fd3c
00000070: 1c46 e1be 0bd9 0dbf 603e 833e b6df 503e
00000080: c146 483d 868f b1bb 58a4 bd3e 52e9 a0be
00000090: f4ba 933d 5b75 72be c023 e03e d37c 17be
000000a0: e7b6 b83e a191 353e 09ed 5a3d 60a5 bbbd
000000b0: 618a f03d 4006 abbc 1e52 1cbe eb14 693e
000000c0: 0374 983e f075 e6bd 78a2 b8be 4316 d0be
000000d0: 8891 503e 72fb b73e f292 1b3d 4567 53be
000000e0: afbc a23e 545b 10bc ea8b 513b e9ee a2bd
000000f0: 63dc ae3e b2e1 f0bd dff2 103d e663 473d
00000100: 9ed5 fdbd 2ef2 993a d5cd 063f 8232 383e
00000110: 341c 613e d587 20be 347f 533e 63b7 dc3d
00000120: ea84 973d c3a8 38bf 5181 9b3d 0f1d ec3e
00000130: 47df 5a3e a299 25bf 49f8 9abe 9870 743d
00000140: b995 d43e b453 f23e af75 243e 2089 1fbd
00000150: e5b2 a63e 9bf8 f53d 54ae c03e bfda 82be
00000160: 8e73 6dbc 12c4 a8bd 0d6d 9c3e 8531 83bc
00000170: fd97 1abe 63e7 a53e 64ce f4bd a470 3abd
00000180: 7b23 ba3e d962 6a3e fe4b 4abd ea09 84bd
00000190: 95e6 dc3e 80ef 77bd c3da 183e a03f 23bd
000001a0: c57e 4c3e 51fb c5be 90a8 5a3e 3fb6 4abf
000001b0: ff92 343f d46a e2be eb10 11be 9b69 013e
000001c0: baba 16bf 4862 08bf f822 f2bd 13cc 6d3e
000001d0: 47cf 733e 1eaf 03bd 24a0 1fbf 93f0 5dbe
000001e0: 0616 aebd a23d 33be ea1f 8cbe 93a3 173f
000001f0: 804a 19be 5d64 013f 5b68 50be 0fb8 d83d
00000200: 3b6b f73e 8eab b9be f4ae f33e 2057 b83e
00000210: 3b24 84bf 52b1 bc3c 06d7 053f fa1c 49bf
00000220: 1fcb 18bf 9a1f e83d d4d0 8d3e f8df 413e
00000230: f138 3c3e 16c3 6bbe e428 3abf a316 51bf
00000240: a9e1 cdbe 84fb c13d c6fb fdbd cf94 51bf
00000250: 13ae 1e3e 0cc2 b33e 193c 633e 3568 b03d
00000260: 361c df3d 5706 b73e 1d7a a1be 3616 9ebe
00000270: e1f5 9cbc c3b0 a73d b156 743e 70ac 38be
00000280: 4c23 dfbc b53f 893e 0839 dcbd 67f1 4c3d
00000290: 8618 5c3e 9fa2 49be 5a88 a73e d167 2abe
000002a0: 3aa0 f2be cd18 4dbd c00f ddbe 5975 eabd
000002b0: 7992 e8be 6a91 8b3e 1d39 ba3c c82b 113f
000002c0: 7d2c f33e 6a48 dabd 1d83 4c3e f05f c5bd
000002d0: f61c 0b3e d878 e1bd e48b c6be 8f41 813d
000002e0: 7148 13be b0fd 9ebe 2fa1 163e 577d c4be
000002f0: cac5 cb3e 9375 d6bd 60d6 ae3e bda7 a33e
00000300: 0145 49bd f8ca 5bbe 2394 08be d2fc 523d
00000310: ffb1 3f3e 18cf 9f3d 2439 ed3e dd21 adbe
00000320: d4f7 d4be ac0c 253e 67e4 3f3d da74 f43e
00000330: 0425 443e a62e 1cbe 1f10 103e dc9c ac3e
00000340: 00c4 c53e 777f a63d a75b a6be 522f 12be
00000350: 79e6 293e 16a9 acbd 5904 2fbe b88f e9bd
00000360: b4f1 2c3e 1ebd 26bd 51d0 0c3e cb99 523d
00000370: 735a 153e 2326 88bc 4263 2fbe 0054 98be
00000380: c3ef a53e a64f 9b3e 1430 053f fcc8 453c
00000390: 504c 1cbf 66d8 cebe 3423 403e 979b 483e
000003a0: 694d fb3d bb5c 2e3d 0a18 b13e 1759 b83d
000003b0: c313 363e 3a1b b4bd 6784 babe 9901 e0bc
000003c0: c18b 923e be15 b53d ca7a 5a3c b23d 90bc
000003d0: b237 6cbe 0ef3 c23e 63e9 8ebd 6fa9 ad3e
000003e0: bafa 933d 9ebb febd 7f51 4cbd 668a d73e
000003f0: 9ca0 5abd a9c2 61bd 3d34 703e 1aec d63e

sequential_1/dense_Dense2/MatMul_bias f4 [15]
-0.09806222 -0.00053639256 0.037081543 0.106150195 0.07513836 0.18905032 0.032990415 -0.07986553
0.0020612024 -0.015973715 0.31137583 0.1553184 0.35251385 0.15258797 -0.035396595
00000000: d8d4 c8bd b29c 0cba d1e2 173d 4665 d93d
00000010: 24e2 993d 6896 413e f520 073d 8a90 a3bd
00000020: 3d15 073b 4fdb 82bc a76c 9f3e c90b 1f3e
00000030: b27c b43e 0540 1c3e 05fc 10bd

sequential_1/dense_Dense3/MatMul/ReadVariableOp/transpose f4 [5, 15]
1.0602132 1.2325845 -1.3264204 -0.14215365 0.8698164 -1.3602879 0.8170999 0.09315539
0.40770435 -0.32351902 0.083018616 -1.0278682 -0.695644 0.53471774 0.19836947 0.13681854
-0.28432864 1.2411603 0.18596444 -0.1766762 -0.96201134 -0.74985933 -0.21947125 0.45656884
0.18120116 -1.1297257 -0.74019235 -0.51066124 -1.0440078 0.29729864 -1.012394 -0.9189266
0.0536996 -0.14830187 -1.0657192 0.31394446 0.32663378 0.7995703 -0.2101828 -0.077306315
0.35529685 0.67988425 -1.448377 0.063132 -0.31246454 -0.50934744 -0.8905438 -1.6228262
-0.39613816 0.13679394 -0.34099478 -0.729142 0.00068919815 0.071485355 0.00036375175 0.53847146
-0.76878256 0.6708415 -0.76227075 0.45349815 -0.21144849 0.080067925 -0.54152685 -1.5280015
-0.4158951 0.42990482 -0.28690225 -0.5674689 -0.13230683 -0.22636065 -1.7968487 0.71837515
0.69029206 0.65273494 -0.13682549
00000000: 11b5 873f 54c5 9d3f 25c8 a9bf ba90 11be
00000010: 4aac 5e3f ea1d aebf 762d 513f 41c8 be3d
00000020: a0be d03e 49a4 a5be aa05 aa3d 2f91 83bf
00000030: ba15 32bf 43e3 083f 5e21 4b3e 291a 0c3e
00000040: 8693 91be 57de 9e3f 766d 3e3e 9bea 34be
00000050: 6046 76bf c8f6 3fbf 12bd 60be 64c3 e93e
00000060: cc8c 393e da9a 90bf 3f7d 3dbf b2ba 02bf
00000070: 0ca2 85bf 8737 983e 2096 81bf c63e 6bbf
00000080: 1df4 5b3d 72dc 17be 7d69 88bf 54bd a03e
00000090: 8b3c a73e a4b0 4c3f 293a 57be c652 9ebd
000000a0: 78e9 b53e e50c 2e3f 6b64 b9bf 5a4b 813d
000000b0: 5afb 9fbe 9864 02bf aefa 63bf c5b8 cfbf
000000c0: 9fd2 cabe b613 0c3e de96 aebe 0da9 3abf
000000d0: 4eab 343a ea66 923d efb5 be39 44d9 093f
000000e0: efce 44bf 45bc 2b3f 2d24 43bf e930 e83e
000000f0: f485 58be a7fa a33d 81a1 0abf 8e95 c3bf
00000100: 34f0 d4be 7c1c dc3e dae4 92be a445 11bf
00000110: 717b 07be 16cb 67be 23ff e5bf 6fe7 373f
00000120: fbb6 303f a319 273f fb1b 0cbe

sequential_1/dense_Dense3/MatMul_bias f4 [5]
-0.91501695 -0.39123845 -0.28202513 -0.04869737 -0.15905166
00000000: 8d3e 6abf 6850 c8be 9965 90be e576 47bd
00000010: 70de 22be
